Not using distributed mode
git:
  sha: 975312716e4306565c8821a496d20cf945a47567, status: has uncommited changes, branch: VGTR

VGTR(
  (visumodel): Joiner(
    (0): VisualModel(
      (resnet): Backbone(
        (backbone): Sequential(
          (0): IntermediateLayerGetter(
            (conv1): Conv2d(3, 64, kernel_size=(7, 7), stride=(2, 2), padding=(3, 3), bias=False)
            (bn1): FrozenBatchNorm2d()
            (relu): ReLU(inplace=True)
            (maxpool): MaxPool2d(kernel_size=3, stride=2, padding=1, dilation=1, ceil_mode=False)
            (layer1): Sequential(
              (0): Bottleneck(
                (conv1): Conv2d(64, 64, kernel_size=(1, 1), stride=(1, 1), bias=False)
                (bn1): FrozenBatchNorm2d()
                (conv2): Conv2d(64, 64, kernel_size=(3, 3), stride=(1, 1), padding=(1, 1), bias=False)
                (bn2): FrozenBatchNorm2d()
                (conv3): Conv2d(64, 256, kernel_size=(1, 1), stride=(1, 1), bias=False)
                (bn3): FrozenBatchNorm2d()
                (relu): ReLU(inplace=True)
                (downsample): Sequential(
                  (0): Conv2d(64, 256, kernel_size=(1, 1), stride=(1, 1), bias=False)
                  (1): FrozenBatchNorm2d()
                )
              )
              (1): Bottleneck(
                (conv1): Conv2d(256, 64, kernel_size=(1, 1), stride=(1, 1), bias=False)
                (bn1): FrozenBatchNorm2d()
                (conv2): Conv2d(64, 64, kernel_size=(3, 3), stride=(1, 1), padding=(1, 1), bias=False)
                (bn2): FrozenBatchNorm2d()
                (conv3): Conv2d(64, 256, kernel_size=(1, 1), stride=(1, 1), bias=False)
                (bn3): FrozenBatchNorm2d()
                (relu): ReLU(inplace=True)
              )
              (2): Bottleneck(
                (conv1): Conv2d(256, 64, kernel_size=(1, 1), stride=(1, 1), bias=False)
                (bn1): FrozenBatchNorm2d()
                (conv2): Conv2d(64, 64, kernel_size=(3, 3), stride=(1, 1), padding=(1, 1), bias=False)
                (bn2): FrozenBatchNorm2d()
                (conv3): Conv2d(64, 256, kernel_size=(1, 1), stride=(1, 1), bias=False)
                (bn3): FrozenBatchNorm2d()
                (relu): ReLU(inplace=True)
              )
            )
            (layer2): Sequential(
              (0): Bottleneck(
                (conv1): Conv2d(256, 128, kernel_size=(1, 1), stride=(1, 1), bias=False)
                (bn1): FrozenBatchNorm2d()
                (conv2): Conv2d(128, 128, kernel_size=(3, 3), stride=(2, 2), padding=(1, 1), bias=False)
                (bn2): FrozenBatchNorm2d()
                (conv3): Conv2d(128, 512, kernel_size=(1, 1), stride=(1, 1), bias=False)
                (bn3): FrozenBatchNorm2d()
                (relu): ReLU(inplace=True)
                (downsample): Sequential(
                  (0): Conv2d(256, 512, kernel_size=(1, 1), stride=(2, 2), bias=False)
                  (1): FrozenBatchNorm2d()
                )
              )
              (1): Bottleneck(
                (conv1): Conv2d(512, 128, kernel_size=(1, 1), stride=(1, 1), bias=False)
                (bn1): FrozenBatchNorm2d()
                (conv2): Conv2d(128, 128, kernel_size=(3, 3), stride=(1, 1), padding=(1, 1), bias=False)
                (bn2): FrozenBatchNorm2d()
                (conv3): Conv2d(128, 512, kernel_size=(1, 1), stride=(1, 1), bias=False)
                (bn3): FrozenBatchNorm2d()
                (relu): ReLU(inplace=True)
              )
              (2): Bottleneck(
                (conv1): Conv2d(512, 128, kernel_size=(1, 1), stride=(1, 1), bias=False)
                (bn1): FrozenBatchNorm2d()
                (conv2): Conv2d(128, 128, kernel_size=(3, 3), stride=(1, 1), padding=(1, 1), bias=False)
                (bn2): FrozenBatchNorm2d()
                (conv3): Conv2d(128, 512, kernel_size=(1, 1), stride=(1, 1), bias=False)
                (bn3): FrozenBatchNorm2d()
                (relu): ReLU(inplace=True)
              )
              (3): Bottleneck(
                (conv1): Conv2d(512, 128, kernel_size=(1, 1), stride=(1, 1), bias=False)
                (bn1): FrozenBatchNorm2d()
                (conv2): Conv2d(128, 128, kernel_size=(3, 3), stride=(1, 1), padding=(1, 1), bias=False)
                (bn2): FrozenBatchNorm2d()
                (conv3): Conv2d(128, 512, kernel_size=(1, 1), stride=(1, 1), bias=False)
                (bn3): FrozenBatchNorm2d()
                (relu): ReLU(inplace=True)
              )
            )
            (layer3): Sequential(
              (0): Bottleneck(
                (conv1): Conv2d(512, 256, kernel_size=(1, 1), stride=(1, 1), bias=False)
                (bn1): FrozenBatchNorm2d()
                (conv2): Conv2d(256, 256, kernel_size=(3, 3), stride=(2, 2), padding=(1, 1), bias=False)
                (bn2): FrozenBatchNorm2d()
                (conv3): Conv2d(256, 1024, kernel_size=(1, 1), stride=(1, 1), bias=False)
                (bn3): FrozenBatchNorm2d()
                (relu): ReLU(inplace=True)
                (downsample): Sequential(
                  (0): Conv2d(512, 1024, kernel_size=(1, 1), stride=(2, 2), bias=False)
                  (1): FrozenBatchNorm2d()
                )
              )
              (1): Bottleneck(
                (conv1): Conv2d(1024, 256, kernel_size=(1, 1), stride=(1, 1), bias=False)
                (bn1): FrozenBatchNorm2d()
                (conv2): Conv2d(256, 256, kernel_size=(3, 3), stride=(1, 1), padding=(1, 1), bias=False)
                (bn2): FrozenBatchNorm2d()
                (conv3): Conv2d(256, 1024, kernel_size=(1, 1), stride=(1, 1), bias=False)
                (bn3): FrozenBatchNorm2d()
                (relu): ReLU(inplace=True)
              )
              (2): Bottleneck(
                (conv1): Conv2d(1024, 256, kernel_size=(1, 1), stride=(1, 1), bias=False)
                (bn1): FrozenBatchNorm2d()
                (conv2): Conv2d(256, 256, kernel_size=(3, 3), stride=(1, 1), padding=(1, 1), bias=False)
                (bn2): FrozenBatchNorm2d()
                (conv3): Conv2d(256, 1024, kernel_size=(1, 1), stride=(1, 1), bias=False)
                (bn3): FrozenBatchNorm2d()
                (relu): ReLU(inplace=True)
              )
              (3): Bottleneck(
                (conv1): Conv2d(1024, 256, kernel_size=(1, 1), stride=(1, 1), bias=False)
                (bn1): FrozenBatchNorm2d()
                (conv2): Conv2d(256, 256, kernel_size=(3, 3), stride=(1, 1), padding=(1, 1), bias=False)
                (bn2): FrozenBatchNorm2d()
                (conv3): Conv2d(256, 1024, kernel_size=(1, 1), stride=(1, 1), bias=False)
                (bn3): FrozenBatchNorm2d()
                (relu): ReLU(inplace=True)
              )
              (4): Bottleneck(
                (conv1): Conv2d(1024, 256, kernel_size=(1, 1), stride=(1, 1), bias=False)
                (bn1): FrozenBatchNorm2d()
                (conv2): Conv2d(256, 256, kernel_size=(3, 3), stride=(1, 1), padding=(1, 1), bias=False)
                (bn2): FrozenBatchNorm2d()
                (conv3): Conv2d(256, 1024, kernel_size=(1, 1), stride=(1, 1), bias=False)
                (bn3): FrozenBatchNorm2d()
                (relu): ReLU(inplace=True)
              )
              (5): Bottleneck(
                (conv1): Conv2d(1024, 256, kernel_size=(1, 1), stride=(1, 1), bias=False)
                (bn1): FrozenBatchNorm2d()
                (conv2): Conv2d(256, 256, kernel_size=(3, 3), stride=(1, 1), padding=(1, 1), bias=False)
                (bn2): FrozenBatchNorm2d()
                (conv3): Conv2d(256, 1024, kernel_size=(1, 1), stride=(1, 1), bias=False)
                (bn3): FrozenBatchNorm2d()
                (relu): ReLU(inplace=True)
              )
            )
            (layer4): Sequential(
              (0): Bottleneck(
                (conv1): Conv2d(1024, 512, kernel_size=(1, 1), stride=(1, 1), bias=False)
                (bn1): FrozenBatchNorm2d()
                (conv2): Conv2d(512, 512, kernel_size=(3, 3), stride=(2, 2), padding=(1, 1), bias=False)
                (bn2): FrozenBatchNorm2d()
                (conv3): Conv2d(512, 2048, kernel_size=(1, 1), stride=(1, 1), bias=False)
                (bn3): FrozenBatchNorm2d()
                (relu): ReLU(inplace=True)
                (downsample): Sequential(
                  (0): Conv2d(1024, 2048, kernel_size=(1, 1), stride=(2, 2), bias=False)
                  (1): FrozenBatchNorm2d()
                )
              )
              (1): Bottleneck(
                (conv1): Conv2d(2048, 512, kernel_size=(1, 1), stride=(1, 1), bias=False)
                (bn1): FrozenBatchNorm2d()
                (conv2): Conv2d(512, 512, kernel_size=(3, 3), stride=(1, 1), padding=(1, 1), bias=False)
                (bn2): FrozenBatchNorm2d()
                (conv3): Conv2d(512, 2048, kernel_size=(1, 1), stride=(1, 1), bias=False)
                (bn3): FrozenBatchNorm2d()
                (relu): ReLU(inplace=True)
              )
              (2): Bottleneck(
                (conv1): Conv2d(2048, 512, kernel_size=(1, 1), stride=(1, 1), bias=False)
                (bn1): FrozenBatchNorm2d()
                (conv2): Conv2d(512, 512, kernel_size=(3, 3), stride=(1, 1), padding=(1, 1), bias=False)
                (bn2): FrozenBatchNorm2d()
                (conv3): Conv2d(512, 2048, kernel_size=(1, 1), stride=(1, 1), bias=False)
                (bn3): FrozenBatchNorm2d()
                (relu): ReLU(inplace=True)
              )
            )
          )
        )
      )
      (input_proj_0): Conv2d(256, 256, kernel_size=(8, 8), stride=(8, 8))
      (input_proj_1): Conv2d(512, 256, kernel_size=(4, 4), stride=(4, 4))
      (input_proj_2): Conv2d(1024, 256, kernel_size=(2, 2), stride=(2, 2))
      (input_proj_3): Conv2d(2048, 256, kernel_size=(1, 1), stride=(1, 1))
      (visual_token_proj): Conv2d(1024, 256, kernel_size=(1, 1), stride=(1, 1))
    )
    (1): PositionEmbeddingSine()
  )
  (textmodel): BiLSTM_Att(
    (bi_lstm): LSTM(256, 256, num_layers=4, batch_first=True, dropout=0.3, bidirectional=True)
    (atten): Linear(in_features=512, out_features=4, bias=False)
    (embedding): Embedding(4178, 256)
  )
  (g_transformer): G_Transformer(
    (encoder): TransformerEncoder(
      (layers): ModuleList(
        (0): TransformerEncoderLayer(
          (v_self_attn): MultiheadAttention(
            (out_proj): Linear(in_features=256, out_features=256, bias=True)
          )
          (t_self_attn): MultiheadAttention(
            (out_proj): Linear(in_features=256, out_features=256, bias=True)
          )
          (cross_attn): MultiheadAttention(
            (out_proj): Linear(in_features=256, out_features=256, bias=True)
          )
          (v_linear1): Linear(in_features=256, out_features=2048, bias=True)
          (v_linear_dropout): Dropout(p=0.1, inplace=False)
          (v_linear2): Linear(in_features=2048, out_features=256, bias=True)
          (t_linear1): Linear(in_features=256, out_features=2048, bias=True)
          (t_linear_dropout): Dropout(p=0.1, inplace=False)
          (t_linear2): Linear(in_features=2048, out_features=256, bias=True)
          (v_norm1): LayerNorm((256,), eps=1e-05, elementwise_affine=True)
          (v_norm2): LayerNorm((256,), eps=1e-05, elementwise_affine=True)
          (t_norm1): LayerNorm((256,), eps=1e-05, elementwise_affine=True)
          (t_norm2): LayerNorm((256,), eps=1e-05, elementwise_affine=True)
          (v_dropout1): Dropout(p=0.1, inplace=False)
          (v_dropout2): Dropout(p=0.1, inplace=False)
          (t_dropout1): Dropout(p=0.1, inplace=False)
          (t_dropout2): Dropout(p=0.1, inplace=False)
        )
        (1): TransformerEncoderLayer(
          (v_self_attn): MultiheadAttention(
            (out_proj): Linear(in_features=256, out_features=256, bias=True)
          )
          (t_self_attn): MultiheadAttention(
            (out_proj): Linear(in_features=256, out_features=256, bias=True)
          )
          (cross_attn): MultiheadAttention(
            (out_proj): Linear(in_features=256, out_features=256, bias=True)
          )
          (v_linear1): Linear(in_features=256, out_features=2048, bias=True)
          (v_linear_dropout): Dropout(p=0.1, inplace=False)
          (v_linear2): Linear(in_features=2048, out_features=256, bias=True)
          (t_linear1): Linear(in_features=256, out_features=2048, bias=True)
          (t_linear_dropout): Dropout(p=0.1, inplace=False)
          (t_linear2): Linear(in_features=2048, out_features=256, bias=True)
          (v_norm1): LayerNorm((256,), eps=1e-05, elementwise_affine=True)
          (v_norm2): LayerNorm((256,), eps=1e-05, elementwise_affine=True)
          (t_norm1): LayerNorm((256,), eps=1e-05, elementwise_affine=True)
          (t_norm2): LayerNorm((256,), eps=1e-05, elementwise_affine=True)
          (v_dropout1): Dropout(p=0.1, inplace=False)
          (v_dropout2): Dropout(p=0.1, inplace=False)
          (t_dropout1): Dropout(p=0.1, inplace=False)
          (t_dropout2): Dropout(p=0.1, inplace=False)
        )
      )
      (norm): ModuleList(
        (0): LayerNorm((256,), eps=1e-05, elementwise_affine=True)
        (1): LayerNorm((256,), eps=1e-05, elementwise_affine=True)
      )
    )
    (decoder): TransformerDecoder(
      (layers): ModuleList(
        (0): TransformerDecoderLayer(
          (self_attn): MultiheadAttention(
            (out_proj): Linear(in_features=256, out_features=256, bias=True)
          )
          (multihead_attn): MultiheadAttention(
            (out_proj): Linear(in_features=256, out_features=256, bias=True)
          )
          (linear1): Linear(in_features=256, out_features=2048, bias=True)
          (dropout): Dropout(p=0.1, inplace=False)
          (linear2): Linear(in_features=2048, out_features=256, bias=True)
          (norm1): LayerNorm((256,), eps=1e-05, elementwise_affine=True)
          (norm2): LayerNorm((256,), eps=1e-05, elementwise_affine=True)
          (norm3): LayerNorm((256,), eps=1e-05, elementwise_affine=True)
          (dropout1): Dropout(p=0.1, inplace=False)
          (dropout2): Dropout(p=0.1, inplace=False)
          (dropout3): Dropout(p=0.1, inplace=False)
        )
        (1): TransformerDecoderLayer(
          (self_attn): MultiheadAttention(
            (out_proj): Linear(in_features=256, out_features=256, bias=True)
          )
          (multihead_attn): MultiheadAttention(
            (out_proj): Linear(in_features=256, out_features=256, bias=True)
          )
          (linear1): Linear(in_features=256, out_features=2048, bias=True)
          (dropout): Dropout(p=0.1, inplace=False)
          (linear2): Linear(in_features=2048, out_features=256, bias=True)
          (norm1): LayerNorm((256,), eps=1e-05, elementwise_affine=True)
          (norm2): LayerNorm((256,), eps=1e-05, elementwise_affine=True)
          (norm3): LayerNorm((256,), eps=1e-05, elementwise_affine=True)
          (dropout1): Dropout(p=0.1, inplace=False)
          (dropout2): Dropout(p=0.1, inplace=False)
          (dropout3): Dropout(p=0.1, inplace=False)
        )
      )
      (norm): LayerNorm((256,), eps=1e-05, elementwise_affine=True)
    )
  )
  (bbox_embed): MLP(
    (layers): ModuleList(
      (0): Linear(in_features=1024, out_features=256, bias=True)
      (1): Linear(in_features=256, out_features=256, bias=True)
      (2): Linear(in_features=256, out_features=4, bias=True)
    )
  )
)
number of params: 47490308
Start training
Epoch: [0]  [   0/3769]  eta: 1:45:04  lr: 0.000100  loss: 1.6290 (1.6290)  loss_bbox: 0.6581 (0.6581)  loss_giou: 0.9709 (0.9709)  time: 1.6727  data: 1.0961  max mem: 1461
Epoch: [0]  [  10/3769]  eta: 0:44:37  lr: 0.000100  loss: 1.6995 (1.6086)  loss_bbox: 0.6356 (0.6116)  loss_giou: 1.0639 (0.9970)  time: 1.4643  data: 1.0064  max mem: 2004
…
